models/model_epoch_156.pt (torch, 448855 bytes, 6 tensors)

net.0.weight f4 [128, 739]
00000000: 237d 093c 4db9 73bc 89e9 d6ba 123b e23c
00000010: 553b 29bc 1638 c53c ae89 01bd e485 ddb9
00000020: 298f b0bc d72e 3c3c 9c7d b73c bf16 763c
00000030: 1d11 abbc 667a 433c d517 0fbd a911 b6bc
00000040: 8691 fb3c 4209 01bd 3ac4 023c 2259 033c
00000050: 9f37 c7b9 8aee 593c 43bc 9d3c d4fa 9a3c
00000060: 6a24 f8bc 50e2 3dbc 9585 603c 2511 b03c
00000070: adea 5fbc ebfb 39bc 2c69 d7bc 4173 e73b
00000080: 6bd7 fabb 45ae f23c 5abb 423b dfe0 06bd
00000090: ecef e63b 3c3f 1b3c a07e a13c 4434 e7bc
000000a0: d1cf 3dba 9a13 b83c 4e26 a1bc 3945 ccbc
000000b0: 0799 1e3c 747a 943b 52bd e9bc feff 183c
000000c0: 8b11 e53c 948f f83c 37fe 01bc b141 08bd
000000d0: c177 09bc 0cb7 013d 972c e2bb 7a33 fd3c
000000e0: 3f53 3f3c ae53 b13c 102a 94bc c7e7 303c
000000f0: 50af 9fbc be52 61bc 952c c33b 95cf 3ebc
00000100: 5864 74bc 2287 babc 5184 ce3c e1ab 83ba
00000110: 12dd 44bc 2cd4 ac3c 4b20 ffbc f2c0 033d
00000120: cdcf bb3b 8150 eb3c eea6 e7bc 43e6 833c
00000130: cbd5 05bd b0b2 dabc 75d7 59bc 7f5c a7bc
00000140: cbd6 7cbc 4f18 59bc ce43 03bb a92a debb
00000150: 7b4d 08bd 3d08 cfbb 312c c63a 4a5d 09bd
00000160: 9c4e 6e3c 6d45 e3bb 994b 183c 30dd 813c
00000170: 142e 703c dd5d fd3c 69b1 0a3c fb78 3c3c
00000180: 3de7 7bbc dc27 da3c f1af d53c 4ce0 b4bb
00000190: 6c44 10bd 3e91 9abc d94a 0c3c 2aaf 6e3c
000001a0: d69b d93c df4d ae3c 187a cf3c 2534 e5bc
000001b0: 9b61 363b 044f db3c 217e 433c ec57 dc3c
000001c0: e480 d7bb d7da b13c f184 c6bc 77c7 8e3b
000001d0: 3a81 a83b 4f22 33bc ef18 0c3d 7924 fcbc
000001e0: 73f4 08bd 8a3c a1bb 8426 04bd 028b d2bc
000001f0: db0a 83bc f551 b53c 5956 b6bc 5477 e93c
00000200: 0c4f 663c c468 803c d92a cf3c a2d7 a5bc
00000210: 1908 acbb e7f4 efba 53e5 f8bb bbe4 15bc
00000220: 9817 a6bb 8cd4 f53c a81a d13c a693 083c
00000230: bfde 0a3d 8178 a3bc b287 acbc a7cd 043d
00000240: 5a37 82bc f7ca 52bc dfed 223b 9ebc d2bc
00000250: 79f1 01bc 443b 8fbc d060 b63c 51e5 013d
00000260: e49d 1b3c 8b3c 05bd 5f98 04bb b1d0 76bc
00000270: ef7a 0a3d 2f14 a4bc d541 fb3c baa9 0b3d
00000280: 202a 123c ee65 0f3d 9e4a d23b 0fd6 dd3c
00000290: 134d a8bb 1603 383c d1e8 b9bc e30a 51bc
000002a0: 7a21 523c bb15 133d d5f4 83bc 80d3 933c
000002b0: 6aae 86bc 783c aa39 b331 433b 4cf0 333b
000002c0: 8835 863c b4cc a63b d749 233b 7d3e a93a
000002d0: eddd f13c 8cb4 acbc d6e1 043d ae51 f9ba
000002e0: 1ef9 1abb 2faf acbb f185 9dbc 61ed d3bc
000002f0: 616a f9bc 40c2 b9bc 84e1 043d 2114 e23c
00000300: 92ef d03c 5964 e03c 0e3a 05bc 7938 dc3c
00000310: ed05 dc3b bd44 79bc 1518 a43b 7f98 3e3c
00000320: 3e32 2cbc c454 b13b 25c2 943c 5fab cdbc
00000330: 338e be3c 3d26 31bb addf 9cbc 43aa b4bc
00000340: 630b 21bc 7c8a 7e3c 061a 07bc 545f dabc
00000350: b2a1 ffba 2428 083d cbad 643c b966 fdbb
00000360: e5f7 803b 52d2 00bb c532 99bc 1591 963c
00000370: c3ce d3bb c941 c0bc 5117 82bc e735 5f3a
00000380: 0481 0dbc 3202 393c 3528 cdbc 1b1e 723b
00000390: b991 88ba 0407 50bc 3ca8 29bc 248c cdbc
000003a0: 63bb 4d3c c101 d4bc d3c9 02bd 9541 e43c
000003b0: 3d6e 93bc 6ac1 013d 6c2a bf3a b79e 063d
000003c0: 483d fdbc 882e 97bb b884 f1bc 36ae 81bc
000003d0: ac2e c13c eb12 613a 2762 67bb 8ce4 023d
000003e0: 434d 703b abc4 d83c 0c52 9bbc 5d07 c5bc
000003f0: 9457 e03c c09d aeba 9ea0 033d 1e78 2dbc
0.008391651 -0.014875722 -0.0016396503 0.027616058 -0.010329087 0.024074595 -0.031625442 -0.0004225216
-0.02155264 0.011485777 0.022398762 0.0150200715 -0.020882184 0.0119310375 -0.034934837 -0.022225218
0.03070904 -0.03150297 0.007981354 0.008016856 -0.0003799768 0.013301501 0.01925481 0.018918432
-0.030290801 -0.011589602 0.013703723 0.02149255 -0.013666791 -0.011351566 -0.026295267 0.0070633
-0.0076550744 0.029624114 0.002971372 -0.032929298 0.007047644 0.0094755255 0.0197137 -0.028223164
-0.0007240745 0.022470284 -0.019671585 -0.024935352 0.009680039 0.004531199 -0.028532658 0.009338377
0.027962467 0.0303419 -0.007934145 -0.033265773 -0.008390368 0.031668708 -0.006902288 0.030908335
0.011677562 0.021646347 -0.018086463 0.0107974475 -0.019492775 -0.013752637 0.0059562423 -0.011646171
-0.014916502 -0.022769514 0.025209578 -0.0010045731 -0.012015598 0.021097265 -0.031143328 0.03216643
0.005731559 0.02872491 -0.02827784 0.016101008 -0.032674592 -0.026696533 -0.013295998 -0.020429848
-0.01543207 -0.0132504245 -0.0020029428 -0.006779988 -0.033277016 -0.0063181208 0.0015119371 -0.033536233
0.014545109 -0.0069357664 0.009295368 0.01585254 0.014659423 0.030928547 0.008465149 0.011503453
-0.015374956 0.026630335 0.026084872 -0.0055199023 -0.035221502 -0.018868085 0.008562767 0.01456813
0.026563566 0.021277366 0.025326774 -0.027978966 0.0027829173 0.026771076 0.011931927 0.026897393
-0.0065766443 0.021710796 -0.024233313 0.004357274 0.005142358 -0.010933473 0.034203466 -0.03077911
-0.03343625 -0.004920547 -0.032263294 -0.02570105 -0.015996387 0.022133807 -0.02225797 0.028499283
0.014056932 0.015674956 0.025288986 -0.020244423 -0.0052499888 -0.001830724 -0.007595697 -0.009148772
-0.0050687306 0.030008577 0.025525406 0.008335983 0.033903833 -0.019954922 -0.021060798 0.032422688
-0.015895534 -0.012865773 0.002486102 -0.025724705 -0.007931107 -0.017484315 0.02226296 0.031712834
0.009498093 -0.03252844 -0.0020232422 -0.015064404 0.033808645 -0.020029156 0.03067104 0.03409741
0.008921176 0.035009317 0.0064175865 0.02707961 -0.005136141 0.0112312045 -0.022694023 -0.012758943
0.012825364 0.035909396 -0.016107956 0.018045187 -0.016440589 0.0003246998 0.0029784262 0.002745646
0.016382948 0.0050903205 0.0024915838 0.00129123 0.029524768 -0.021082185 0.032441936 -0.0019021535
-0.002364702 -0.005269907 -0.019228907 -0.025870027 -0.030446233 -0.022675633 0.03244163 0.027597489
0.025504861 0.0273916 -0.008131517 0.026882397 0.0067145736 -0.015214142 0.0050077536 0.011633038
-0.010510026 0.005411716 0.018158982 -0.02510613 0.023261165 -0.0027030848 -0.019149626 -0.022053843
-0.009829375 0.015535947 -0.008245951 -0.026656784 -0.0019503145 0.033241406 0.013957451 -0.0077331928
0.0039358013 -0.001965661 -0.018700967 0.018379727 -0.006463857 -0.023468869 -0.015880259 0.0008514807
-0.008636717 0.011292027 -0.025043586 0.0036944214 -0.0010419405 -0.012696985 -0.010355052 -0.025091238
0.0125568835 -0.025879743 -0.031930756 0.027863303 -0.017996902 0.031678595 0.0014584786 0.032866206
-0.03091301 -0.0046137013 -0.02948223 -0.01583014 0.023581825 0.0008585888 -0.0035306306 0.03195624
0.0036667145 0.026460966 -0.018960021 -0.024051363 0.02738551 -0.001332216 0.0321356 -0.01058772

net.0.bias f4 [128]
00000000: 118a bebc 09be 98bc a09c a93c b0bf fdbc
00000010: fa84 e7b9 d174 063c d1ab 4e3b 6109 383d
00000020: 0345 5b3c 80ed 22bc ad32 97ba 522b 6e3c
00000030: a85e 98bc 72c0 2c3d 12c2 8cbc e6db 6a3c
00000040: 7af6 6e3c 57c3 8c3c 25ab 62bc 0c3b 90bc
00000050: 07fa 513c 077a 0a3d 526a fb3c 2ec7 cfbc
00000060: 258c 063d 6e68 d73b eec5 873c ab6a 543d
00000070: 4aef 9aba 0b40 14bd 5d43 fd3a c6df b33c
00000080: 0f7d 3f3d 468b dcbc c3b2 03bd a20c c63c
00000090: 50fe 6f3c d1ec c33c dbd6 2dbd 24bc a13c
000000a0: 2ceb 863c 3e27 973c 7b6c 7f3c 7944 483d
000000b0: 31cf 493d f15b 1ebc 3f8f 80bc 0658 d63c
000000c0: e1d7 263c 4931 a5bb 13ce 96bb d3ec 0cbd
000000d0: 7309 1c3d a08f 503c b5b6 f9bb e1cd 2f3c
000000e0: 773e a1bc da9f eb3c b520 efbb dccc febc
000000f0: 5839 fdbc 6ad6 993c 15e6 103c 286d d03b
00000100: f82d d3bb b6af 8a3b 87cc a0bc 90bf 1b3d
00000110: cf88 893b 162f 0abc 2685 abbc 1f0b 443d
00000120: cf44 b13c a217 e6bc 0a9e d5bc a9ef 133c
00000130: 17b6 f7bc 24c5 993c fa61 22bd 24d5 86bb
00000140: 1689 8b3c ef35 813c 5d2a 1bbc d8bf 2bbc
00000150: 0dbc bebc b8c4 b73c 931d 68bc 2358 07bd
00000160: fd5b 23bd 5200 13bd 760c 603c 65c1 1fbb
00000170: 2650 32bb 9c0b 0c3d 9b3f 5abc f975 953c
00000180: ef25 9dbc 75e2 583c ad8d cd3b a58d d936
00000190: cd19 4c3d 0951 e1bc f2a8 f83c 446f 4ebc
000001a0: e120 fa3c 0785 edbc ac89 92bc 5ed6 013c
000001b0: 1a5b 683c 5e8e 0cbc afd4 53bb 2750 083d
000001c0: d3c5 a5bb 85d8 0b3c c1b0 efbc db8a cdbc
000001d0: fa00 213d 2564 da3c f4ef 253d 9b25 b63c
000001e0: c385 19bd 8161 13bb 1bfb 4a3d a8b9 a73c
000001f0: 68cc 853c 3ae9 7dbc 8b6d 1b3d 635f f23c
-0.023259195 -0.018645303 0.020704567 -0.030975193 -0.0004415883 0.008206562 0.0031535516 0.04493082
0.013383153 -0.00994432 -0.0011535488 0.014536696 -0.018599823 0.042175718 -0.017182384 0.014334654
0.014585132 0.017182989 -0.013834749 -0.01760628 0.012815959 0.03380778 0.030690346 -0.025363531
0.032848496 0.0065737283 0.016573872 0.05185954 -0.0011820581 -0.03619389 0.0019322444 0.02195729
0.046750125 -0.02692188 -0.032152902 0.024175946 0.014648035 0.023916634 -0.04244123 0.019743033
0.01646956 0.01845133 0.015589829 0.048893426 0.04926986 -0.009665475 -0.015693305 0.02616502
0.0101833055 -0.0050412756 -0.0046022027 -0.03440554 0.03809495 0.012729555 -0.0076206573 0.010730238
-0.019683106 0.028762747 -0.0072976 -0.031103544 -0.030911133 0.018778998 0.008843918 0.0063606687
-0.006444689 0.004232372 -0.019628776 0.038024485 0.004197217 -0.008434078 -0.020937514 0.04786217
0.021639256 -0.02808744 -0.026076335 0.009029307 -0.030238194 0.018770762 -0.03964422 -0.004114764
0.017033141 0.015772788 -0.009470549 -0.010482751 -0.023283029 0.02243267 -0.014167207 -0.033043038
-0.03988265 -0.035888977 0.013674846 -0.0024376747 -0.0027208417 0.03419076 -0.013320829 0.01824473
-0.019183127 0.013237585 0.0062729926 6.4835936e-06 0.049829293 -0.02750446 0.030353997 -0.01259977
0.030533256 -0.028994096 -0.017887913 0.007924644 0.014181877 -0.008578865 -0.0032322814 0.033279564
-0.005058983 0.008535509 -0.029259088 -0.025090626 0.039307572 0.02665908 0.04051204 0.022234729
-0.03748108 -0.0022488537 0.04955588 0.02047427 0.01633282 -0.0154975 0.037946265 0.0295865

net.3.weight f4 [128, 128]
00000000: dce7 0bbd 1090 093c a5e6 47bd e1f4 903d
00000010: 030b f43a e27b d5bc a4a5 7ebd 4030 06bc
00000020: 0bcb 80bb c449 8fbc 583f a2bd cc6a 8b3d
00000030: 6c98 673d 9b80 da3c 35c1 a93c 1ae8 cc3c
00000040: c3cb 50bc 49cd 0dbd d51e 573c fcb6 8fbd
00000050: 9912 763c 250a 863a 8043 57bd 2da2 223d
00000060: aa09 20bd b8f2 bbbc af21 8b3d 9c91 0e3d
00000070: 2392 71bd d8f3 91bd 0749 383d d787 413d
00000080: 9783 5d3d 71a0 4d3d fbeb 69bd f5f9 33bd
00000090: 2f2f 9d3d b334 033d 50a8 99bd 3a67 63bd
000000a0: f8ef 7ebd a721 a3bd 745b 5d3d 060e abbc
000000b0: 8a7b 48bd 041f 193d 0d17 09bc 2f02 43bd
000000c0: 81d0 2d3c 0f5f f439 c9fe 96bd 0e53 73bc
000000d0: 7bea 143d fbaa 96bc fbeb db3c eb9e 373d
000000e0: 2595 563d 33db 6c3d 49e8 0ebd f710 653d
000000f0: 04cb 913c 0434 723d 6af8 823d 19ad 193c
00000100: 840b 44bd 7e3d 13bd a21b b6bc d5b0 eb3c
00000110: b996 ef3b 1997 ca3c a64f 8a3d 32d0 863c
00000120: 2cd8 703d 3134 023d c366 6dbd b271 efbc
00000130: dac5 5a3d 6125 95bd 77cd 713d 9c63 c6bb
00000140: 0987 613d f2e8 d63c 55fb 93bd 6578 003d
00000150: fc57 6abb 4570 39bd d864 423d 82e4 8c3b
00000160: 7700 59bd 379f cbbc 3178 4ebd b265 47bd
00000170: 06bc 6bbd 7b2b 55bd b204 c23c 9011 633c
00000180: 9b61 c8bc a8db 69bd 6709 6c3c 5f7b a3bc
00000190: 6470 26bd 0414 6d3d b285 7b3d 5290 34bd
000001a0: f263 30bc dc4c 103d 855c c7bc 5f6f 9c3d
000001b0: d15a 6b3c 330b 613d 3675 0fbd cc7a 73bd
000001c0: edcb a9bd f034 44bc 4deb a3bd 5da3 a73d
000001d0: 80ab 203c 9a62 dabb daef 123d b2f4 c03c
000001e0: 02c1 a83d 884b 87bc f25f 1b3d 78cc ea3c
000001f0: 5a53 423d 0274 a73d 230a 54bd e186 c93c
00000200: 09b7 a73d f0e4 a13d 2e11 84bc 6e65 0b3d
00000210: 5807 a4bc 8b26 04bd a026 a53d 6e5b a6bc
00000220: 77dc d3bb 4ab6 0b3d 95b2 a8bd 2779 66bd
00000230: 92ea 18bd f399 8d3d 1241 09bb a9b8 29bc
00000240: ddab ef3c cff2 29bd 7a2b b5bc 45b6 4f3d
00000250: b1fa 913c 0e02 903d db60 6abd cab5 23bd
00000260: b301 e43c 442e 82bc c572 853d 16ca 843c
00000270: def8 1b3d 36a4 67bd 0852 973c f51b ca3d
00000280: 489d e5bc 0a68 4dbd 3add 6bbd 7a0f 0abd
00000290: f074 53bb d7a9 7b3c 896e 74bb b43e 3c3d
000002a0: 5380 f0bb 05fb 93bd 4adf 29bd d5a6 2ebd
000002b0: 2810 4b3d 0f8f bc3d 3fb5 82bd aa01 80bd
000002c0: a897 c33c eded 00bd a5bb 443d a609 303d
000002d0: 0aca b6bb 5820 f73c 564a 5b3c ae1d 49bd
000002e0: 2e9c a9bd 1319 1a3d 6db0 b53b 64bb ae3c
000002f0: aef1 f73b 216d 803d 513b 0a39 fc3e cd3c
00000300: 7dc5 563d 93e6 923d b272 8a3d b94c 4b3d
00000310: 33f8 593d 9fb1 253d 845c e93b c481 5d3d
00000320: f5b4 353d bcc4 2a3d c3c9 48bd 6a5f 663d
00000330: 2de7 62bb e6ae 583d ce11 ce3c dec3 b23d
00000340: 5a3c cc3d 0aca 473d d1e6 6abb 6f2a 203d
00000350: 4227 5f3c 0e72 88bd 7373 4fbd 4594 c63d
00000360: 91a3 763d ca80 4dbc b62f c53d 2ab3 863d
00000370: 3ba2 b8bd a58b 89bd b9c9 a3bd a2af 6d3d
00000380: b087 b03c 9b32 843d b7da 74bc be5b d3bc
00000390: 8624 37bd 527c 1fbd d392 a1bc b269 85bc
000003a0: bae3 743d 18b8 57bd ac3a 6bbd 5d2a 073d
000003b0: 4366 6b3c 31df 073d 6196 603d 183d 29bd
000003c0: a94d 973c 185d 2b3d 7a45 c1bb 4048 293d
000003d0: 3c99 803d bad0 3dbd a4f2 7e3c ddf0 fe3b
000003e0: 8242 573d ff2a 823d 66ae 4abd 947d 8f3d
000003f0: fae2 e1bb d814 6e3d fe98 8abc 72a3 d7bc
-0.034156665 0.008396164 -0.048803944 0.07077957 0.0018619004 -0.026060048 -0.062169686 -0.008190215
-0.0039304546 -0.017491229 -0.07922238 0.06807479 0.056541845 0.026672652 0.020722011 0.025013018
-0.012743893 -0.034619603 0.0131299095 -0.070173234 0.015019082 0.0010226412 -0.052554607 0.039705444
-0.039071716 -0.022942886 0.06793534 0.034806833 -0.058977257 -0.07126588 0.04499152 0.047248688
0.054080572 0.050201837 -0.057109814 -0.04393955 0.07675015 0.03203268 -0.07502806 -0.055518366
-0.06224057 -0.07965403 0.054042295 -0.02088071 -0.04894594 0.037383094 -0.008367312 -0.047609504
0.010608793 0.0004661013 -0.07372815 -0.014851345 0.03635643 -0.018392077 0.026845923 0.04482929
0.05238833 0.057826232 -0.034889493 0.055924382 0.017797 0.059131637 0.063950375 0.009379649
-0.047862545 -0.035947315 -0.022229973 0.028770844 0.0073116687 0.024730252 0.06753473 0.016456697
0.058799908 0.031788055 -0.05795933 -0.029229019 0.053411342 -0.0728252 0.059033837 -0.006054355
0.05506042 0.026234124 -0.07225672 0.031364817 -0.003575801 -0.045273084 0.047459453 0.004299701
-0.05297896 -0.024856193 -0.050407592 -0.04868097 -0.05755236 -0.05204342 0.02368388 0.013859168
-0.024460604 -0.057094246 0.014406539 -0.019956289 -0.040634528 0.057880417 0.0614068 -0.044082947
-0.010766016 0.03522955 -0.024336109 0.0763843 0.014364914 0.05494232 -0.03502389 -0.05944328
-0.08290849 -0.011975512 -0.080038644 0.08185456 0.009806514 -0.0066645863 0.03587327 0.02355418
0.08239938 -0.016515508 0.037933297 0.028661951 0.04744277 0.081764236 -0.05176748 0.024600448
0.08189208 0.079049945 -0.016121473 0.034032278 -0.020023033 -0.03226332 0.08064008 -0.020307269
-0.0064654904 0.03410939 -0.08237187 -0.056267884 -0.03733308 0.06914129 -0.0020943326 -0.010358968
0.029256755 -0.041491326 -0.022115458 0.050710935 0.017819734 0.07031642 -0.057221275 -0.03996829
0.027832842 -0.015891202 0.06516031 0.016209643 0.038079135 -0.056553088 0.018471733 0.09868614
-0.0280291 -0.050148048 -0.057584025 -0.033706166 -0.0032265745 0.015360317 -0.003729733 0.045958236
-0.007339516 -0.072256126 -0.04147271 -0.042639572 0.049575955 0.09206974 -0.06382226 -0.062503174
0.023876026 -0.031476904 0.048030514 0.04297795 -0.005578284 0.03016679 0.013384422 -0.04910057
-0.08281742 0.03762157 0.005544713 0.02132959 0.0075666523 0.06270815 0.00013182803 0.025054447
0.052434433 0.07172885 0.06760158 0.049633715 0.053215217 0.040452596 0.0071216244 0.054078832
0.044362027 0.041691527 -0.04902054 0.056243338 -0.0034622655 0.05290117 0.025154974 0.08728765
0.09972449 0.048776664 -0.0035843144 0.039102968 0.0136202 -0.06662379 -0.05064721 0.09696249
0.060214583 -0.012542913 0.09628241 0.065771416 -0.09015318 -0.06716088 -0.0799746 0.058028825
0.021549076 0.06454965 -0.014944724 -0.025800582 -0.044712566 -0.03893692 -0.019723332 -0.016285751
0.05978749 -0.0526658 -0.057429 0.032999385 0.014367643 0.033171836 0.054830913 -0.04131803
0.018469648 0.041836828 -0.005898175 0.04132867 0.06279227 -0.046341635 0.01556078 0.007780178
0.05255366 0.06355857 -0.049482726 0.07006374 -0.006893513 0.058125347 -0.016918655 -0.026323054

net.3.bias f4 [128]
00000000: 0cbe 16bd 2ba5 c93c 526d 19bd 1539 b0bd
00000010: ca72 ab3d 1599 7f3d cdda 8f3d d198 383d
00000020: 33c4 b1bd e1aa 4f3d fbc3 e1bc c3b7 5abd
00000030: 6aa2 383e c733 023d 49be b13d df10 063e
00000040: 0e4a 5b3d cd8a fcbb 4f59 f3bb 1bd9 89bd
00000050: 6802 d83b f72d 103e 4a95 4c3d 7373 e83a
00000060: e7e3 2abd 3921 153e 0072 bebd db22 a2bd
00000070: 4659 15bd 97e3 293c fbd9 cc3d 4630 bc3d
00000080: 89ec ae3d e489 bdbc ec20 6b3d bd8c 4c3e
00000090: 14dc 753d 0990 503c 84e7 b73d f5cb 493e
000000a0: fda1 c9bc 5b00 5fbc c93d 073e 5a49 c93d
000000b0: ad5d 593d 7bf7 2a3e 001c f23d f3f3 b43d
000000c0: d135 943d f69e 5cbd 4309 923c 287d 37bd
000000d0: 7c51 80bb d311 223c 04d3 c13d a4a9 01bb
000000e0: 4e2e ad3c d72f 1e3d 1232 ba3d 0f0b 2c3c
000000f0: bd26 3f3e 3a09 fa3d 0fd9 1b3e 3c4a d43d
00000100: e73c 613d d9aa 04bd d64b 293e 45d6 1d3e
00000110: 25af e63c a2fb b83c fc1d 053e 57f2 233e
00000120: eb54 2f3e d49b 643d c407 bfbc 41b7 80bc
00000130: 8674 343e 0131 57bd f548 503d a869 d33d
00000140: a86d 713c 64a3 4dbd bece dabc 01fc a5bd
00000150: d587 043e a9e0 bf3d 54d5 813d 74b2 b03d
00000160: fa32 f8bc a3c4 003e 94c8 853e 7fa7 9bbb
00000170: 0353 b43c bc55 d63c be9e af3b 8d0d 203e
00000180: c6b2 833e d2ae 113d 0e72 043d 6210 ea3c
00000190: ac73 9d3d b593 fe3d e581 c03d 5732 a7bd
000001a0: 4fcb 883c 7c80 f43c 870c 72bb f5b6 df3c
000001b0: 0e6e 0e3d 548c 9e3d 067b 6abd 0497 f53c
000001c0: 3692 b13d ce8e a63d c044 2b3d db71 1e3e
000001d0: cc39 683d 22f7 453e 2dcd 603e 237c 3bbd
000001e0: aa35 963b 8358 27bb 1278 8bbd 605a 3a3d
000001f0: f1b8 cebb 1c55 413e d7d2 e03d dde2 123e
-0.036802337 0.024614891 -0.03745777 -0.086046375 0.08371504 0.06240185 0.07024155 0.045067612
-0.0868 0.050700072 -0.027559271 -0.053397905 0.18030706 0.03178766 0.08678872 0.13092373
0.05353742 -0.007706976 -0.007426418 -0.06730863 0.0065920837 0.14080034 0.04994706 0.0017734602
-0.04172125 0.14563455 -0.092990875 -0.079168044 -0.03646209 0.010369203 0.10002514 0.09188895
0.08541209 -0.02313704 0.057404444 0.19975562 0.060024336 0.012729653 0.08979705 0.1970671
-0.024613375 -0.013610925 0.13207163 0.09828444 0.05306785 0.16695969 0.11821747 0.08835592
0.07236827 -0.053862534 0.017826682 -0.044797093 -0.0039159637 0.009891945 0.09464076 -0.0019784952
0.021140244 0.038619842 0.090915814 0.010500683 0.18667121 0.12208791 0.1521952 0.103657216
0.05498972 -0.032389496 0.16532835 0.15413769 0.028159687 0.022580925 0.1299972 0.16010414
0.17122237 0.05581267 -0.023319133 -0.015712382 0.17622575 -0.05253697 0.050850827 0.10322887
0.014735617 -0.05020465 -0.02670991 -0.081047066 0.12942441 0.093690224 0.06339517 0.08627787
-0.030297745 0.12575011 0.2612959 -0.0047501917 0.02201224 0.026163928 0.0053594997 0.15630169
0.2572233 0.035567112 0.032335334 0.028572265 0.07688078 0.12430517 0.093997754 -0.081638984
0.016698508 0.029846422 -0.0036933736 0.02730892 0.034772925 0.07741609 -0.05724623 0.029979236
0.08670466 0.081327066 0.041813612 0.1547312 0.056695744 0.19332555 0.21953268 -0.045772683
0.004584034 -0.0025534935 -0.06810011 0.045496345 -0.006308668 0.18880123 0.109777145 0.14344354

net.5.weight f4 [3, 128]
00000000: c777 a7bc 57e1 b13d 796c 88bd bd7d 79bd
00000010: 4321 8bbe 9557 5fbd 5cde 79bd 80e4 1d3d
00000020: fc0c 33bd 2bd5 e9bd 4913 ad3d 5d06 dc3b
00000030: 7389 f0be cab1 3fbe ec6b 04be dc12 cfbe
00000040: 8fc0 90bd 0d59 7ebd 0341 a1be 242a 283d
00000050: 49d4 2b3d 43be a43e 7bd0 423d 463c babd
00000060: cb6a adbd 587b 1bbe 6de8 46bc 3b4d 9a3c
00000070: 31db 55bd e166 ee3d 37f5 023f 6c6f 92bd
00000080: 9703 543d 157d bcbd 4fa0 96be c22c 703e
00000090: 99a2 e83e 3f23 dabd 1f3a 82be 51ac 48bf
000000a0: c608 163d 0fcb 8cbd 1a4c 1bbe 1be4 1ebe
000000b0: 2c7e 89be 4991 593e 2c2f ce3e 6c3a bc3d
000000c0: 5b2d a7bd 7205 f5bc b4a3 60bd c7ba efba
000000d0: 5ba3 453d 0e1a 903d 896c ba3e 5306 3b3d
000000e0: 5278 ed3c bac9 a73d a239 b03e cfaf c3bd
000000f0: 36fe 133f 2554 0fbf 4391 ad3d 2dc4 e63e
00000100: 8639 9a3e 24ad 31bd dc39 d43e fb79 2d3f
00000110: 713f d83d 9abc 09bd 79c2 633e fbea 033f
00000120: 20aa 163e abac 99be 7285 4f3d 2166 053d
00000130: 294e 80be 1c85 563d a2cd 83be 1023 073f
00000140: 2a54 f0bc f928 b23d 81d6 873c ab8d 7cbd
00000150: abc5 5dbe 61fd db3e 12e2 f03d 88ef 32be
00000160: cc01 83bd 5886 e4bb 5b86 ce3e 69e2 9dbc
00000170: 42ae 13be 2bf3 62bc 7a10 9bbc e996 01bf
00000180: 5f84 6c3e e8fd 833d 1a1a 7fbe 72a8 28be
00000190: 5e1d a5be 886d 883e 5a7f fe3d d250 20bd
000001a0: d0f2 1cbe 6088 283d a9e1 8f3c 138e d23b
000001b0: 4f99 f23d 37d8 d7be 6ecb 0a3d 0fa5 073d
000001c0: ca35 adbe 77be 1e3e 68ad 22bd 6bdd a6bd
000001d0: 8e48 46be c0f5 eabd bab4 dbbe 0d39 c13d
000001e0: b889 443e 98d6 2dbe 0479 ec3b 6d43 c1bc
000001f0: 6033 8abd 14c5 543e 9f12 e43d 8d2c ba3e
00000200: 7084 6d3d ad9b 573e ab4b 0abd be9b 86bd
00000210: 585f 25be f008 3b3d 4acc 2c3e 9830 913e
00000220: 7a06 d9bc 15b3 a63e 0fed 8a3d b33c 96bd
00000230: 336f 993d 48d9 8e3e db0a 363e f83a 4c3d
00000240: 6301 6bbd 1d37 ef3d 83b3 fe3e 1d49 fdbb
00000250: f48a 52bd 989e 9bbe ee64 b73c dda7 393d
00000260: 2411 48bd d571 71be 07f0 97bd a38e b93c
00000270: 5c56 f7bb 1784 46bd 2a49 67be a782 0bbd
00000280: c1fd 74bd 471b b63e fbcf 0b3f 0619 c4be
00000290: e824 b1bd b75d a9bc bc55 dc3e 810b c03e
000002a0: a1d0 0bbd d1b4 24bd b4a1 bcbd 538f ec3e
000002b0: e39d ea3e 6323 e63e d0c6 aebd 4489 6e3e
000002c0: 5308 813d b5c9 3e3d 4397 663e 9266 0b3e
000002d0: 86f5 a63c 1977 6a3c 178e 34be 9b91 023d
000002e0: b2dd f7bd b965 863e c133 f1bd 8bbc fd3e
000002f0: a8b9 abbd 56f9 7a3e 408b f53e db75 9cbe
00000300: 1c61 86be 432a 8bbd 8421 273e ddbe 96be
00000310: 2838 f33b e43c 69bd 5260 4e3e a2f7 91be
00000320: 41fd 97be 7638 ff3e 8a8b 4abd b052 fc3c
00000330: f8a4 3abe 6c71 353d b19e c23e 5db1 8fbe
00000340: c2b1 ec3d ebfa babc 8e5e bd3d b5f8 273c
00000350: 94d7 04bd 745f 79be 88e1 133e 205c 8abe
00000360: 2c0f ef3c a3d7 00be 58ad 11bf c545 1439
00000370: ad8c ed3d 918c e2bd 9f87 c1bc 2863 333e
00000380: 7168 2fbf 3105 07bd cf8c e03e 1b88 ba3d
00000390: 96bf 053f d59f 2abe fd67 b73c 9c0e 98bc
000003a0: ee7d 993e e011 d13d 0db7 a63c 7db4 cfbd
000003b0: 1716 95bd 1b54 393f 7671 423d ae5a 97bc
000003c0: 3629 033f 13ea 08be e324 ffbd 9b0a 6bbe
000003d0: 8ad0 f6bb ab18 80be 8273 2ebd 1793 373d
000003e0: c6f0 03bd 00da 2f3e 53e6 343c 5fe7 30bd
000003f0: 70ec 253d 164b e9be 2e5b 1fbe 0631 443d
-0.020442856 0.08685558 -0.066613145 -0.06091093 -0.27173814 -0.054526884 -0.061003074 0.038547993
-0.043713555 -0.11417612 0.08450944 0.0067146257 -0.46979865 -0.18720165 -0.12931794 -0.40444076
-0.07067978 -0.062096644 -0.31494913 0.041055813 0.041950498 0.32176408 0.047562104 -0.090935275
-0.08467635 -0.1518377 -0.012140376 0.018835654 -0.05221099 0.11640716 0.5115542 -0.07150158
0.051761236 -0.09203545 -0.2941918 0.23454574 0.45436552 -0.10651254 -0.25434968 -0.78387934
0.03662946 -0.06874668 -0.15165749 -0.15516703 -0.26854074 0.21246828 0.40270364 0.091908306
-0.08162948 -0.029909823 -0.05484362 -0.0018289917 0.04825149 0.070362195 0.3641093 0.045660328
0.028988037 0.08192773 0.3441897 -0.09555017 0.5780977 -0.5598777 0.08474972 0.45071545
0.30122012 -0.04337801 0.41450393 0.6776425 0.105589755 -0.03362713 0.22242154 0.51530427
0.14713335 -0.30014548 0.050664373 0.0325681 -0.2505963 0.052373037 -0.25742823 0.52787876
-0.029337008 0.08699221 0.016581776 -0.061658543 -0.21657436 0.4296675 0.117618695 -0.17474186
-0.06396827 -0.006974023 0.4033688 -0.019273 -0.14421943 -0.013851921 -0.018928755 -0.50620896
0.2309737 0.06444913 -0.249123 -0.16470507 -0.32248968 0.26646066 0.12426634 -0.039139576
-0.15327 0.041145682 0.017563658 0.006425628 0.118456475 -0.42157146 0.033885412 0.033116397
-0.338301 0.15502344 -0.039716154 -0.08147701 -0.19363615 -0.11472654 -0.4291132 0.0943471
0.1919316 -0.16976392 0.0072165746 -0.023591721 -0.0674808 0.20778304 0.11136364 0.36362115
0.05798763 0.2105548 -0.03376357 -0.06572674 -0.16149652 0.04566282 0.16874805 0.28357387
-0.026492346 0.32558504 0.067834966 -0.07335796 0.07491913 0.27900147 0.17777579 0.049860924
-0.05737437 0.11680434 0.49746332 -0.007729663 -0.051402047 -0.30394435 0.022386994 0.045326103
-0.04884447 -0.2357858 -0.074188285 0.022651022 -0.0075481366 -0.048465814 -0.22586504 -0.034060147
-0.05981231 0.35567686 0.5461423 -0.3830034 -0.086496174 -0.02067457 0.4303416 0.37508777
-0.03413451 -0.040211502 -0.0921053 0.46203098 0.45823583 0.44948873 -0.08534014 0.2329455
0.06300416 0.04657908 0.2251864 0.13613346 0.020380747 0.014310622 -0.17632328 0.03187714
-0.12102832 0.26249483 -0.117774494 0.4955791 -0.083850205 0.24509177 0.47957802 -0.30558667
-0.26245964 -0.0679517 0.16321379 -0.29442492 0.007422466 -0.056942835 0.20153931 -0.2850924
-0.29685405 0.49847764 -0.04944948 0.030801147 -0.18226993 0.04429762 0.38011697 -0.28065005
0.11557342 -0.022824725 0.092465505 0.0102521675 -0.032432154 -0.24352819 0.14441502 -0.2702341
0.02918204 -0.12582259 -0.56905127 0.00014140371 0.115990974 -0.11061967 -0.02362424 0.17518294
-0.6851874 -0.032963935 0.43857428 0.09107991 0.5224546 -0.16662534 0.022388453 -0.018561654
0.2997889 0.102084875 0.020350957 -0.10141847 -0.07279604 0.7239396 0.047471486 -0.018475857
0.5123476 -0.13370542 -0.124582075 -0.22953264 -0.007532184 -0.2501882 -0.042590626 0.04481801
-0.03221204 0.17173004 0.011041242 -0.043189403 0.040508687 -0.455651 -0.15562126 0.047898315

net.5.bias f4 [3]
00000000: a7d4 353e 85ac c5be 9397 583e
0.17756902 -0.38608184 0.21151571
